Checkpoint.pth (torch_old, 88691 bytes, 8 tensors)

conv1.weight f4 [10, 1, 5, 5]
-0.46354398 -0.5704736 -0.5546715 -0.37112373 -0.05370673 -0.25900745 -0.034156002 -0.37906796
-0.42295334 -0.40708533 0.045261286 -0.030188274 0.14635327 -0.12014882 -0.20917527 0.15876348
0.12299793 0.15172522 0.18877743 0.050941102 0.22472471 0.23330119 0.20727265 0.4004591
0.3708654 -0.09014891 -0.009301296 0.02605142 0.17716521 0.39004147 0.13782986 0.09126617
0.3514272 0.2993036 0.10423633 0.08211776 0.20805039 0.18884353 0.22174254 -0.301676
-0.01598136 -0.027190574 -0.120806634 -0.23932198 -0.5307664 -0.07120847 -0.3161039 -0.51959515
-0.592559 -0.2983469 0.18534343 -0.14991647 0.05798958 0.091126345 0.092536405 -0.397234
-0.34123915 0.11470621 -0.010934361 -0.19367169 -0.25720775 -0.21396019 0.34139684 0.21548286
-0.5595769 0.00443571 0.34531018 0.046828445 0.19241315 -0.3368576 0.023711653 0.17506646
-0.057802826 0.12427061 0.42964718 -0.6632713 -0.10669215 0.03622389 0.18330516 0.2599706
-0.080376275 0.22126147 0.108122155 0.057923418 0.19984391 0.043181874 0.1660858 0.09897741
-0.0006052107 0.07289569 0.2819981 -0.010845046 0.13638069 0.17085102 0.084868886 -0.12087518
0.03676646 -0.10730451 -0.10445735 -0.09032095 0.121503554 0.2834888 0.240377 0.06664433
-0.14780721 -0.08474626 0.111026846 0.1961464 0.25183034 0.06780649 -0.25308865 -0.082292646
0.11557321 0.30319118 0.20889947 -0.3028604 -0.25588766 -0.06873747 0.16177663 0.40319973
-0.29853603 -0.27945542 -0.2399105 -0.1811468 0.20696802 -0.12035573 -0.33647063 -0.38362655
0.07198731 0.28849274 0.34669572 -0.042103823 0.26765513 0.2490719 0.11047717 -0.007821382
0.2836956 0.017684199 -0.15223534 -0.0061503737 0.0872885 -0.16320118 -0.0035410973 -0.20877211
0.09950663 0.17891543 0.045657843 0.13197584 0.37528512 0.4055461 0.06394371 0.04592886
0.23061442 0.043972716 -0.05055954 0.07685586 0.2641134 0.2222326 -0.06515615 -0.18214153
0.23745598 0.34342697 0.035286516 -0.17126478 -0.20828679 0.30693787 0.18071887 -0.086637974
-0.200984 -0.45680022 0.40552723 0.14424446 -0.13543087 -0.21263647 -0.5604913 -0.42606074
-0.15404801 0.046067726 0.20453021 0.12861344 -0.4298614 -0.07868801 0.18203749 0.20842053
0.15370351 -0.5795158 -0.1878978 0.19936796 0.21966043 0.0869377 -0.5147157 -0.13075544
0.10894925 0.030068053 0.23093101 -0.37554243 -0.39211598 -0.14097688 0.23401983 0.25331494
-0.069165245 -0.12880042 -0.33419055 -0.21281905 -0.46490252 0.30380183 0.035211172 -0.17641439
-0.2305771 -0.23614787 0.39271778 0.11682257 -0.13448714 -0.18986273 -0.26327905 0.25289914
0.17304982 0.037931737 0.065302916 -0.148935 0.17012553 0.3517537 0.30129954 0.083666146
0.04065992 0.21093893 -0.20028366 -0.48944557 -0.3948724 -0.080979764 -0.14744067 -0.53587204
-0.42060167 -0.14390647 0.067806125 -0.32685092 -0.52764887 -0.076784246 0.03263124 0.26488417
-0.5191204 -0.29296565 0.03905773 0.15434855 0.26719356 -0.36522144 -0.2226694 0.28638992
0.18266657 0.32150486
00000000: a355 edbe 8f0a 12bf f4fe 0dbf ee03 bebe
00000010: 97fb 5bbd a09c 84be 2ae7 0bbd 3215 c2be
00000020: 578d d8be 7d6d d0be e663 393d 664d f7bc
00000030: a2dd 153e 9610 f6bd 0b32 56be e592 223e
00000040: 57e6 fb3d db5d 1b3e df4e 413e 9ea7 503d
00000050: 3c1e 663e 82e6 6e3e 483f 543e fa08 cd3e
00000060: 12e2 bd3e fe9f b8bd 7764 18bc ca69 d53c
00000070: cc6a 353e 84b3 c73e 4523 0d3e c2e9 ba3d
00000080: 44ee b33e 523e 993e db79 d53d 5b2d a83d
00000090: 290b 553e 3360 413e 7a10 633e 4775 9abe
000000a0: 57eb 82bc c4be debc 7869 f7bd d210 75be
000000b0: 4fe0 07bf bfd5 91bd 5fd8 a1be 3004 05bf
000000c0: f2b1 17bf edc0 98be abca 3d3e b483 19be
000000d0: 7b86 6d3d 73a0 ba3d ba83 bd3d 4162 cbbe
000000e0: e6b6 aebe 17eb ea3d 0926 33bc df51 46be
000000f0: bcb0 83be 6118 5bbe 91cb ae3e 8aa7 5c3e
00000100: 6f40 0fbf 6f59 913b 7fcc b03e 2fcf 3f3d
00000110: f407 453e 9978 acbe f13e c23c 9f44 333e
00000120: a8c2 6cbd 9781 fe3d b7fa db3e 26cc 29bf
00000130: 6a81 dabd 805f 143d 59b4 3b3e de1a 853e
00000140: 519c a4bd 5e92 623e 266f dd3d 1b41 6d3d
00000150: e2a3 4c3e 7adf 303d 6512 2a3e abb4 ca3d
00000160: 01a7 1eba 564a 953d 0e62 903e 6baf 31bc
00000170: 61a7 0b3e 92f3 2e3e bdcf ad3d 688d f7bd
00000180: 6d98 163d 78c2 dbbd bced d5bd 31fa b8bd
00000190: dbd6 f83d 7225 913e 6325 763e d37c 883d
000001a0: c65a 17be 728f adbd 0b62 e33d 9ada 483e
000001b0: e8ef 803e 21de 8a3d d694 81be 0c89 a8bd
000001c0: a6b1 ec3d e03b 9b3e bee9 553e 8510 9bbe
000001d0: b503 83be 3bc6 8cbd c6a8 253e 3270 ce3e
000001e0: b7d9 98be c814 8fbe 19ab 75be 8c7e 39be
000001f0: 6def 533e 117d f6bd e145 acbe b36a c4be
00000200: 156e 933d 52b5 933e 1a82 b13e 0f75 2cbd
00000210: 180a 893e b40c 7f3e db41 e23d 4125 00bc
00000220: 8d40 913e 74de 903c 95e3 1bbe 1389 c9bb
00000230: 50c4 b23d 361e 27be c111 68bb 5bc8 55be
00000240: 22ca cb3d 9b35 373e b803 3b3d ad24 073e
00000250: 5f25 c03e bda3 cf3e ebf4 823d e61f 3c3d
00000260: 3026 6c3e bc1c 343d 8517 4fbd 9b66 9d3d
00000270: df39 873e f190 633e 9670 85bd 4f83 3abe
00000280: a927 733e a9d5 af3e 9888 103d 0960 2fbe
00000290: 2249 55be f626 9d3e 5e0e 393e 406f b1bd
000002a0: c0ce 4dbe b8e1 e9be 44a1 cf3e d2b4 133e
000002b0: 64ae 0abe 60bd 59be 5c7c 0fbf a224 dabe
000002c0: c3be 1dbe 83b1 3c3d 5e70 513e 3eb3 033e
000002d0: cb16 dcbe 2e27 a1bd 0968 3a3e 316c 553e
000002e0: 7464 1d3e 265b 14bf 4868 40be 1d27 4c3e
000002f0: aaee 603e 650c b23d 68c4 03bf c1e4 05be
00000300: c920 df3d 4751 f63c 2e79 6c3e 1947 c0be
00000310: 6dc3 c8be 3e5c 10be e5a2 6f3e 7fb2 813e
00000320: 82a6 8dbd 42e4 03be 061b abbe 3ded 59be
00000330: b407 eebe ea8b 9b3e 9739 103d f9a5 34be
00000340: 671c 6cbe bfd0 71be 4e12 c93e ac40 ef3d
00000350: ffb6 09be 606b 42be 83cc 86be ff7b 813e
00000360: f933 313e 4f5e 1b3d 89bd 853d 6b82 18be
00000370: 6335 2e3e 1019 b43e ef43 9a3e 2859 ab3d
00000380: 048b 263d 6000 583e 2917 4dbe 9c98 fabe
00000390: b72c cabe b8d8 a5bd b0fa 16be e92e 09bf
000003a0: 1a59 d7be 385c 13be f0dd 8a3d 0159 a7be
000003b0: ff13 07bf 0f41 9dbd 56a8 053d e69e 873e
000003c0: 13e5 04bf 98ff 95be 00fb 1f3d 8c0d 1e3e
000003d0: 98cd 883e 4efe babe 7203 64be b3a1 923e
000003e0: f20c 3b3e 499c a43e

conv1.bias f4 [10]
-0.2845019 -0.35936064 0.167275 -0.29321566 -0.034221184 -0.054807406 -0.090556055 -0.42706332
-0.28458858 -0.41939256
00000000: 3caa 91be 1efe b7be 234a 2b3e 5d20 96be
00000010: 832b 0cbd bb7d 60bd 7475 b9bd 0ba8 dabe
00000020: 98b5 91be 9fba d6be

conv2.weight f4 [20, 10, 5, 5]
-0.060633834 -0.11957896 -0.13188876 0.017489823 -0.08390248 0.0042497055 0.12796506 -0.11480754
-0.102063894 -0.013909502 0.27665448 0.025327168 -0.027937371 0.07304658 0.0036767612 0.13717896
0.08302223 -0.015543549 0.002134241 -0.03955593 0.012403535 -0.12798274 -0.1026506 -0.14897303
-0.2008768 -0.056471813 -0.037699603 0.047078956 -0.106423534 -0.42798415 -0.037852224 0.08656641
0.05320771 -0.21101746 -0.16247167 0.084894314 0.17431873 -0.20012367 0.023782356 0.060744617
0.25522587 -0.013485432 0.08514748 0.09827833 -0.053013816 -0.10434599 -0.11832835 -0.104782686
-0.07925189 -0.13753708 -0.120920315 -0.09774725 -0.106158726 -0.12092885 -0.16208236 -0.2727575
-0.23634797 -0.17254749 0.03358734 0.015811889 -0.17262746 -0.14306498 -0.04672431 -0.026608497
-0.05907002 -0.17403503 -0.012068384 0.07100931 0.0028861538 0.06268741 -0.11871512 -0.019364938
0.02840688 0.08367851 0.18124706 0.015456091 -0.004247451 -0.16540758 -0.12606137 -0.087668985
-0.05111981 -0.020870823 -0.064904965 0.031010471 -0.04641323 -0.071533024 -0.15249012 -0.027309552
0.071310304 0.042548317 0.016944963 -0.03216368 0.15344933 0.019651476 0.041123554 -0.0938687
-0.048394218 0.06264804 0.011972446 -0.079910725 0.03636813 0.055897307 -0.020694511 -0.020503104
0.025391163 0.08888665 0.078329735 -0.065414794 0.005554951 -0.05709017 0.12851872 -0.108755425
-0.114047706 -0.11364 -0.12977622 -0.041960098 -0.17100303 -0.17162387 -0.20492686 0.008923827
-0.14782384 0.021105973 -0.1455241 -0.090725094 -0.025510382 -0.050368607 -0.12441607 -0.109971225
-0.0021496029 0.0730793 0.009545379 -0.15571195 -0.12576385 -0.023227764 -0.0043901475 -0.16011094
-0.10575236 -0.051679138 -0.00630272 0.06993997 -0.18490958 -0.07191739 -0.022929074 -0.005264456
0.05695424 -0.04566735 0.059353184 0.08958439 0.07922315 0.081241004 0.04009059 0.096927315
0.09208457 -0.060742125 0.012632583 0.028808137 0.07992613 0.070148684 -0.073328465 0.03580364
0.028317895 0.077519804 -0.032041397 -0.025433501 0.03741061 0.014380535 0.15283631 0.10813178
0.042283937 0.03816635 0.16492082 -0.16869582 0.037323426 0.043544658 0.070892766 0.123075075
0.09170133 0.07039684 -0.039054733 0.086432785 0.23694828 0.041053414 0.030990327 -0.02003106
0.048324984 0.281473 0.06741213 0.14545217 0.098220825 -0.009079654 -0.055124253 0.03839311
0.1022741 0.0709014 0.0023165734 -0.17788279 0.1409263 0.19438496 0.1265008 0.045844503
0.107628085 -0.022293016 -0.014211173 0.060482904 0.08700022 0.20458983 0.07917816 -0.07587504
0.047101848 -0.042424966 0.082945906 -0.058969148 -0.1343572 -0.06239915 -0.073322006 -0.17855723
-0.15344322 -0.18085021 -0.13468204 -0.06829091 -0.10775252 -0.19722067 0.114508584 -0.073844604
0.0212792 -0.060082056 0.025584664 -0.06344852 -0.121186815 -0.12833427 0.010186785 0.16300851
0.12348021 0.104240276 0.0571793 0.024176447 0.18087427 0.122184075 -0.053559486 0.12959312
0.12673137 0.1945372 0.16664095 0.12152358 0.05492335 0.08872874 0.014498241 0.1020078
0.07802568 -0.05549741 -0.118798 0.02626642 -0.089999735 -0.13890855 -0.10085524 -0.054842565
00000000: 2f5b 78bd d0e5 f4bd d90d 07be d146 8f3c
00000010: 10d5 abbd 1d41 8b3b 4609 033e 3720 ebbd
00000020: e006 d1bd aee4 63bc a8a5 8d3e ec7a cf3c
00000030: eadc e4bc 7299 953d d1f5 703b a478 0c3e
00000040: 8f07 aa3d 5faa 7ebc 9fde 0b3b 6605 22bd
00000050: 3238 4b3c e80d 03be 7a3a d2bd 638c 18be
00000060: a6b2 4dbe fd4e 67bd e66a 1abd ddd5 403d
00000070: 95f4 d9bd bd20 dbbe ef0a 1bbd bb49 b13d
00000080: 54f0 593d f614 58be f95e 26be 12dd ad3d
00000090: 9c80 323e 38ed 4cbe 37d3 c23c 59cf 783d
000000a0: f7ac 823e 00f2 5cbc cd61 ae3d 2646 c93d
000000b0: 0425 59bd 5ab3 d5bd 2256 f2bd 4e98 d6bd
000000c0: d14e a2bd 85d6 0cbe 12a5 f7bd b62f c8bd
000000d0: bf69 d9bd 8ba9 f7bd ebf8 25be dfa6 8bbe
000000e0: 3405 72be 4ab0 30be e192 093d ef87 813c
000000f0: 41c5 30be a07f 12be fd61 3fbd 10fa d9bc
00000100: 68f3 71bd 3d36 32be 79ba 45bc 546d 913d
00000110: a025 3d3b 4262 803d ea20 f3bd 38a3 9ebc
00000120: 8cb5 e83c a35f ab3d d498 393e 8b3b 7d3c
00000130: 342e 8bbb 9b60 29be 3b16 01be cc8b b3bd
00000140: 0263 51bd 4af9 aabc e5ec 84bd ac09 fe3c
00000150: cd1b 3ebd e87f 92bd 5f26 1cbe 48b8 dfbc
00000160: 230b 923d 2547 2e3d 2ad0 8a3c 10be 03bd
00000170: d221 1d3e 22fc a03c 2c71 283d 3c3e c0bd
00000180: 0439 46bd 9e4d 803d 1428 443c 3ca8 a3bd
00000190: c0f6 143d 93f4 643d 8987 a9bc 20f6 a7bc
000001a0: 2101 d03c 340a b63d 576b a03d 31f8 85bd
000001b0: 4e06 b63b 62d7 69bd 699a 033e 2abb debd
000001c0: d891 e9bd 17bc e8bd 0fe4 04be 5ade 2bbd
000001d0: 6b1b 2fbe 2bbe 2fbe 59d8 51be 3e35 123c
000001e0: 225f 17be 6fe6 ac3c 4504 15be 14ce b9bd
000001f0: 26fb d0bc 504f 4ebd dacd febd 9838 e1bd
00000200: 5ae0 0cbb 9aaa 953d 3964 1c3c f472 1fbe
00000210: 3dc8 00be 2748 bebc 3adb 8fbb 1ff4 23be
00000220: b194 d8bd 81ad 53bd 0c87 cebb b03c 8f3d
00000230: f058 3dbe 6d49 93bd c1d5 bbbc 7581 acbb
00000240: d948 693d b00d 3bbd 531c 733d 0578 b73d
00000250: bf3f a23d af61 a63d 0836 243d d481 c63d
00000260: d696 bc3d bccc 78bd e5f8 4e3c 0bff eb3c
00000270: 50b0 a33d 1daa 8f3d 3c2d 96bd d6a6 123d
00000280: eefa e73c b4c2 9e3d d73d 03bd eb59 d0bc
00000290: de3b 193d 569c 6b3c 1f81 1c3e 3274 dd3d
000002a0: ec31 2d3d 5254 1c3d 01e1 283e 99be 2cbe
000002b0: 73e0 183d e25b 323d 3a30 913d c90e fc3d
000002c0: e8cd bb3d 382c 903d dbf7 1fbd ac03 b13d
000002d0: 92a2 723e a027 283d 6ddf fd3c 2d18 a4bc
000002e0: 6bf0 453d 3b1d 903e 5f0f 8a3d 6af1 143e
000002f0: 0028 c93d d4c2 14bc f8c9 61bd 1842 1d3d
00000300: 1575 d13d c134 913d a7d1 173b e826 36be
00000310: fc4e 103e da0c 473e 6d89 013e 72c7 3b3d
00000320: 1d6c dc3d d89f b6bc fbd5 68bc ecbc 773d
00000330: 2c2d b23d ff7f 513e 2928 a23d 5f64 9bbd
00000340: deed 403d cdc5 2dbd 8bdf a93d a289 71bd
00000350: ef94 09be 4096 7fbd d929 96bd b5d7 36be
00000360: 3820 1dbe cc30 39be 17ea 09be 1bdc 8bbd
00000370: 5aad dcbd 37f4 49be 7a83 ea3d d73b 97bd
00000380: b851 ae3c 9a18 76bd ee96 d13c 4cf1 81bd
00000390: cb30 f8bd 0f6a 03be 79e6 263c b4eb 263e
000003a0: 31e3 fc3d ed7b d53d d734 6a3d af0d c63c
000003b0: 1b37 393e a53b fa3d 3161 5bbd 0fb4 043e
000003c0: dec5 013e c234 473e eda3 2a3e 5be1 f83d
000003d0: 4ff7 603d 6ab7 b53d 088a 6d3c 77e9 d03d
000003e0: edcb 9f3d 4151 63bd 5e4c f3bd ad2c d73c
000003f0: c851 b8bd 0b3e 0ebe 318d cebd 99a2 60bd

conv2.bias f4 [20]
-0.17112714 -0.118174054 -0.08569929 -0.05584276 0.0024977033 -0.05812848 -0.1977953 -0.12443164
-0.07610251 0.16285416 0.24722433 -0.0821485 0.06774858 -0.27263907 0.026112374 0.098242104
0.111116394 0.13710643 0.03160913 0.14448799
00000000: f43b 2fbe 3d05 f2bd 1c83 afbd 61bb 64bd
00000010: 82b0 233b 2118 6ebd da8a 4abe 04d6 febd
00000020: a2db 9bbd 3ec3 263e 6028 7d3e 793d a8bd
00000030: c4bf 8a3d 5997 8bbe 9ee9 d53c 2833 c93d
00000040: fe90 e33d a165 0c3e 9378 013d a9f4 133e

linear1.weight f4 [50, 320]
-0.05020185 -0.18040286 0.03716226 0.12025681 0.04008757 -0.02771992 0.010968252 0.021551842
-0.00017907306 -0.07685271 0.0797625 0.017842684 0.08358336 0.042682637 0.09792879 0.061888967
-0.120854616 -0.027306005 0.17106748 0.1159368 -0.060503338 -0.08149828 -0.18438981 0.07021149
-0.024241105 0.0024006711 -0.077005416 0.0549544 -0.0023188337 0.060711775 0.024382988 0.017323451
-0.054687988 -0.005641831 -0.030012593 -0.011989893 0.01813062 -0.062217157 -0.00017219096 0.0797016
0.004972548 0.045981154 0.04332344 0.076042995 -0.06073973 0.06491603 0.01953752 -0.07122158
-0.2607998 -0.08141893 0.14988017 0.08802387 -0.05821 -0.022015186 -0.023060687 0.03162045
-0.041880213 -0.017726904 0.032621123 0.036393486 -0.05284799 0.015293437 -0.007091098 -0.0028384663
-0.005416394 0.13413382 0.022911347 -0.20872803 0.16594021 0.05830191 0.10721562 -0.0467076
0.08975244 -0.032137614 0.013049195 -0.029394487 -0.003464349 -0.0035440235 0.012067028 -0.06083551
0.22048451 -0.02663565 -0.121223345 -0.18235485 0.038105555 0.1255708 -0.13150863 0.08463314
-0.02455281 0.11217148 -0.007979454 -0.0456476 0.028483864 -0.041903388 -0.037112102 0.029525561
-0.024626909 0.18176669 0.031237848 0.060387723 0.089789525 -0.0894911 -0.11157905 -0.016768565
0.15949559 0.10939785 0.036556266 -0.07540936 0.40064004 -0.06112391 -0.054948423 0.044819597
0.3369418 0.078198075 0.11757117 0.040905993 -0.06286822 -0.042859703 -0.020147748 -0.0047737136
0.03248646 -0.051861126 0.11800942 -0.059618406 0.004316328 -0.009316047 -0.014891223 -0.033127114
-0.17452307 -0.120903455 0.1433459 0.080122516 -0.040580485 -0.11544288 -0.0485212 -0.10045746
0.100652404 0.029541941 0.17912109 -0.060245775 0.0035060307 0.111545265 0.007816756 0.062403195
0.07438744 -0.15628943 -0.1011948 0.16233017 -0.053450804 -0.038402785 -0.051425982 0.008276177
-0.027452102 0.025676604 0.029742025 -0.01738534 0.042016003 0.048752036 0.024761913 0.034831773
-0.038940065 -0.016918872 0.021969985 -0.055410657 -0.056582056 -0.009802998 0.041727234 -0.009167718
-0.018596735 0.017330885 -0.006294903 0.043289922 -0.029067341 0.01943215 0.029267546 0.014006989
-0.1774083 -0.06835368 0.049080867 0.016721439 0.1100197 0.03845124 0.07678219 -0.048014894
-0.046807896 -0.0066811736 0.040526826 0.004785798 -0.0841047 -0.051032864 0.035480294 0.026675826
0.10651508 0.040231325 0.027880616 -0.07399123 0.096343614 -0.09029093 -0.099815845 -0.019526966
0.098230414 0.04906743 -0.03677746 -0.050617587 0.03147701 0.045752525 0.12544815 -0.048022453
0.04523288 -0.060680054 -0.10689852 -0.020125676 0.09928885 0.052670516 -0.18417852 -0.051011935
0.14427075 -0.026047861 0.13599199 0.096658155 -0.049867958 -0.019437106 0.09393143 -0.13090256
0.033031143 -0.16140553 -0.09355624 0.123960346 0.00305327 0.007519252 -0.04462815 0.021798508
-0.0050679767 0.058712088 -0.20513146 0.15465474 -0.004339112 0.07481815 -0.09409196 0.1671261
0.114386424 0.08899194 -0.051112164 -0.023447625 -0.008219855 -0.030998753 -0.05818049 -0.19171347
-0.00025524956 0.009291165 -0.028958404 -0.050247658 -0.041755196 0.0010211153 0.022833794 0.15042847
00000000: 74a0 4dbd 87bb 38be 7437 183d 3449 f63d
00000010: dd32 243d e314 e3bc 2fb4 333c 7d8d b03c
00000020: 8fc5 3bb9 f464 9dbd 865a a33d d22a 923c
00000030: c12d ab3d fdd3 2e3d e48e c83d 497f 7d3d
00000040: a082 f7bd d8b0 dfbc 502c 2f3e 4670 ed3d
00000050: 59d2 77bd 92e8 a6bd afd0 3cbe 0bcb 8f3d
00000060: 4895 c6bc 9454 1d3b 04b5 9dbd dd17 613d
00000070: 93f7 17bb e9ac 783d d5be c73c e9e9 8d3c
00000080: 8300 60bd 1cdf b8bb f8dc f5bc 4271 44bc
00000090: aa86 943c 6bd7 7ebd 298e 34b9 983a a33d
000000a0: c2f0 a23b bc56 3c3d eb73 313d 6ebc 9b3d
000000b0: 39ca 78bd b2f2 843d 260d a03c 9fdc 91bd
000000c0: 8d87 85be f8be a6bd 307a 193e dc45 b43d
000000d0: 9c6d 6ebd 3159 b4bc c4e9 bcbc 7284 013d
000000e0: 968a 2bbd 0338 91bc ba9d 053d 5611 153d
000000f0: 2277 58bd 5391 7a3c 715c e8bb 9005 3abb
00000100: 027c b1bb 605a 093e 94b0 bb3c cdbc 55be
00000110: 3bec 293e fccd 6e3d dd93 db3d 7850 3fbd
00000120: 21d0 b73d bba2 03bd 4acc 553c b5cc f0bc
00000130: 220a 63bb d942 68bb c9b4 453c a82e 79bd
00000140: b1c6 613e 0233 dabc f243 f8bd 3bbb 3abe
00000150: 9214 1c3d a295 003e 33aa 06be 2454 ad3d
00000160: f922 c9bc 29ba e53d 41bc 02bc faf8 3abd
00000170: fe56 e93c e3a2 2bbd dc02 18bd 97df f13c
00000180: 5fbe c9bc 0c21 3a3e 84e6 ff3c 1e59 773d
00000190: 92e3 b73d 1c47 b7bd 8f83 e4bd 3b5e 89bc
000001a0: d052 233e fb0b e03d 06bc 153d 3970 9abd
000001b0: b120 cd3e 115d 7abd 9911 61bd c194 373d
000001c0: a383 ac3e 5026 a03d 27c9 f03d 0b8d 273d
000001d0: 0ec1 80bd a88d 2fbd e40c a5bc d06c 9cbb
000001e0: 8610 053d 556c 54bd ecae f13d 6e32 74bd
000001f0: fc6f 8d3b 55a2 18bc 51fa 73bc 4cb0 07bd
00000200: 2db6 32be 3b9c f7bd 45c9 123e 4617 a43d
00000210: b937 26bd 516d ecbd 2abe 46bd a4bc cdbd
00000220: d922 ce3d f101 f23c 856b 373e 46c4 76bd
00000230: 6fc5 653b d871 e43d da11 003c 7e9a 7f3d
00000240: 7158 983d 560a 20be 383f cfbd e139 263e
00000250: 3bef 5abd 3d4c 1dbd 0da4 52bd cd98 073c
00000260: 3be3 e0bc be57 d23c 8ca5 f33c b36b 8ebc
00000270: f918 2c3d 37b0 473d 7fd9 ca3c c3ab 0e3d
00000280: 9e7f 1fbd 7299 8abc 66fa b33c 49f6 62bd
00000290: 96c2 67bd c19c 20bc 2dea 2a3d 3234 16bc
000002a0: 2e58 98bc 80f9 8d3c 7945 cebb c650 313d
000002b0: a21e eebc 2c30 9f3c 7ec2 ef3c 927d 653c
000002c0: 85aa 35be 04fd 8bbd 0509 493d 66fb 883c
000002d0: 0252 e13d 0c7f 1d3d fb3f 9d3d 44ab 44bd
000002e0: a3b9 3fbd bfed dabb 75ff 253d 2fd2 9c3b
000002f0: 163f acbd d607 51bd c953 113d 4387 da3c
00000300: 9424 da3d 9ac9 243d e465 e43c b788 97bd
00000310: cd4f c53d 73ea b8bd 406c ccbd 04f7 9fbc
00000320: 072d c93d eefa 483d f6a3 16bd 6354 4fbd
00000330: 0aee 003d 0067 3b3d 7b75 003e 31b3 44bd
00000340: 1d46 393d a68b 78bd 9ced dabd 9ade a4bc
00000350: f457 cb3d 0abd 573d 4b99 3cbe e4f1 50bd
00000360: b6bb 133e 5362 d5bc 7c41 0b3e b6f4 c53d
00000370: 5842 4cbd 913a 9fbc 1f5f c03d 520b 06be
00000380: aa4b 073d 7e47 25be 6a9a bfbd ecde fd3d
00000390: 5f19 483b 0f64 f63b 02cc 36bd c992 b23c
000003a0: 4511 a6bb 167c 703d fb0d 52be d05d 1e3e
000003b0: 1c2f 8ebb 423a 993d 49b3 c0bd 1b23 2b3e
000003c0: 6e43 ea3d 6841 b63d fd5a 51bd 3c15 c0bc
000003d0: 92ac 06bc 19f1 fdbc aa4e 6ebd 8950 44be
000003e0: 04d3 85b9 f839 183c 2d3a edbc 7dd0 4dbd
000003f0: 7f07 2bbd f2d6 853a f00d bb3c ec09 1a3e

linear1.bias f4 [50]
0.08267413 0.008761797 -0.018245269 0.60437506 0.56974375 0.14991094 -0.14013958 0.35603872
0.32425568 0.29610342 0.011598363 0.23961574 -0.063093565 -0.011315566 0.62267756 0.17068282
0.42895943 0.75238526 0.53340125 0.39624533 0.07374074 -0.048179455 0.21224664 0.40819085
0.54760903 0.12981 0.36365741 0.23709622 -0.102213845 0.32117698 0.08792418 0.003075721
0.4602446 0.32089305 0.29222253 -0.06251073 0.0768948 0.45014346 0.22951613 0.40171152
0.18068476 0.14741907 -0.046370342 0.24713561 0.3977226 0.52519727 0.07224888 0.09997742
0.46652907 -0.1633754
00000000: 0e51 a93d a48d 0f3c 1a77 95bc 53b8 1a3f
00000010: bada 113f 4182 193e c080 0fbe b54a b63e
00000020: d704 a63e de9a 973e 0f07 3e3c d45d 753e
00000030: 3337 81bd ec64 39bc cc67 1f3f 7ac7 2e3e
00000040: 92a0 db3e 529c 403f fc8c 083f abe0 ca3e
00000050: 6305 973d d257 45bd 2f57 593e 64fe d03e
00000060: 1b30 0c3f eaec 043e 4e31 ba3e 5ac9 723e
00000070: 7e55 d1bd 4f71 a43e 9811 b43d 0992 493b
00000080: 2ea5 eb3e 184c a43e 319e 953e a005 80bd
00000090: 057b 9d3d 3479 e63e 4706 6b3e 22ad cd3e
000000a0: 6d05 393e 06f5 163e d4ee 3dbd 1e11 7d3e
000000b0: 4ca2 cb3e 5473 063f 39f7 933d f6c0 cc3d
000000c0: e6dc ee3e e14b 27be

linear2.weight f4 [10, 50]
0.07089047 -0.43446767 -0.26096502 -0.35342124 0.044720173 -0.24227533 -0.045391086 0.016820218
-0.20809469 0.13509436 0.14856192 0.27359965 -0.19332153 0.096932344 -0.32476404 -0.44560784
-0.37575632 -0.3254225 -0.36871326 -0.27509272 0.13338839 -0.22266985 -0.22342885 -0.19436626
-0.14962149 0.20903037 -0.4663867 0.1809833 -0.12608948 -0.14754172 -0.06370776 -0.19374783
-0.2554455 0.24178195 -0.19604681 -0.0918388 0.111524984 0.18808284 0.24696673 -0.25252438
-0.48404208 0.19625065 -0.3748544 -0.13627373 -0.24602945 -0.35341796 -0.28936708 -0.3204317
-0.24626026 -0.28486723 -0.15098472 -0.17203912 -0.20483223 0.28238824 0.063893385 -0.192925
-0.44313607 0.043698628 0.11461877 -0.53960335 -0.45529732 -0.41139215 -0.33451533 -0.35981435
0.18918964 -0.31691897 0.17153405 0.24105807 0.11087897 0.15198477 -0.33375046 -0.3798429
-0.37508863 0.114770584 0.19467582 -0.22897391 0.051898576 -0.32790223 -0.37079382 -0.3016942
-0.22106674 -0.26770294 0.11044934 -0.40589118 0.10137168 -0.10930757 -0.35466117 -0.2145571
-0.29008693 0.16439086 0.07024557 -0.30446875 -0.22217366 0.0027787013 0.15417366 0.07882051
-0.23366585 -0.18932398 0.19229454 -0.30577987 0.1188859 -0.11741194 -0.07456733 -0.067121886
0.08700973 -0.1591298 -0.14546643 -0.14577958 0.16607901 -0.2445492 -0.0535586 -0.11694222
-0.3043759 0.08935702 -0.0217141 -0.10263906 -0.224755 -0.15831563 0.06847495 0.12994565
0.105685055 -0.08143941 -0.02307006 0.13173006 -0.04366465 0.1558977 0.12243673 -0.17997156
-0.16618359 -0.00012308515 0.22044787 0.024590187 0.10328249 0.07155165 -0.021154711 0.17028454
-0.028145049 0.008326016 0.22288212 0.16480204 -0.1465471 0.16756019 -0.20949946 0.26606995
0.095094554 -0.31713253 0.113108166 0.16536537 -0.12740462 -0.24220103 0.12961684 0.11303363
0.02170386 -0.032106265 0.04580944 -0.22138275 -0.06645857 0.13979958 0.15883377 0.0912777
0.13095339 -0.22758918 -0.1086499 -0.06975761 -0.26834717 -0.084673986 -0.082914755 -0.29617414
-0.20367612 0.12565133 0.084682204 0.22978501 -0.17753458 0.062274795 -0.12565401 0.15242523
-0.07005094 -0.012700215 -0.07852532 -0.04831867 0.06268947 0.26398146 0.11108677 -0.13393734
-0.15528376 0.21784464 0.079237394 0.030998977 -0.09517381 0.16210784 0.11129929 -0.0019759412
0.19611193 0.04606511 -0.15615228 0.084211595 0.16119167 -0.018158099 0.17036578 0.08678815
0.13769321 0.11698789 0.18834002 0.21595155 -0.28960934 -0.17748387 0.13090563 -0.33746663
-0.26316524 -0.22392158 -0.21514167 -0.05878689 -0.11024904 0.07707697 0.142314 0.15336446
0.069960475 0.14307375 0.10455387 -0.23025532 -0.33911502 -0.13144635 0.1679122 0.10823567
-0.14000519 -0.17232293 0.11258188 -0.1617979 -0.121814005 -0.121697664 -0.08848416 -0.019981222
-0.13339458 -0.04379244 0.093880564 0.18330298 -0.26882967 -0.12731138 0.13383463 -0.101900816
0.09670372 -0.05698876 0.15732324 -0.1542831 0.13970722 -0.03654562 0.1850699 -0.07342564
-0.15905742 0.050496545 -0.14194135 0.12709817 0.18084773 0.1536663 0.016231397 0.122381926
00000000: 062f 913d 8c72 debe 359d 85be a1f3 b4be
00000010: 802c 373d 0617 78be 01ec 39bd 8eca 893c
00000020: c616 55be 2d56 0a3e 9e20 183e 4115 8c3e
00000030: 14f6 45be 7784 c63d 7947 a6be b626 e4be
00000040: 2263 c0be c79d a6be fcc7 bcbe f4d8 8cbe
00000050: f796 083e 9103 64be 88ca 64be f307 47be
00000060: 6036 19be 0f0c 563e 3dca eebe b053 393e
00000070: 9a1d 01be 2d15 17be 3779 82bd d565 46be
00000080: c1c9 82be b095 773e 7fc0 48be fb15 bcbd
00000090: 3667 e43d ca98 403e d9e4 7c3e e04a 81be
000000a0: 5dd4 f7be eef5 483e eaec bfbe 578b 0bbe
000000b0: 25ef 7bbe 33f3 b4be ec27 94be a00f a4be
000000c0: a62b 7cbe 1eda 91be bd9b 1abe 062b 30be
000000d0: 8abf 51be 3195 903e 89da 823d 228e 45be
000000e0: bbe2 e2be 55fd 323d 3fbd ea3d 7223 0abf
000000f0: bb1c e9be fea1 d2be 9845 abbe 9639 b8be
00000100: eeba 413e 3443 a2be 9fa6 2f3e edd7 763e
00000110: 8314 e33d e5a1 1b3e 57e1 aabe c57a c2be
00000120: 9e0b c0be d70c eb3d 1959 473e 2378 6abe
00000130: 9a93 543d cde2 a7be b0d8 bdbe aa77 9abe
00000140: 525f 62be 5c10 89be 4333 e23d f8d0 cfbe
00000150: f59b cf3d a6dc dfbd 2696 b5be dbb4 5bbe
00000160: 4686 94be 1456 283e e9dc 8f3d 54e3 9bbe
00000170: 7e81 63be df1a 363b b3df 1d3e a66c a13d
00000180: 1a46 6fbe 25de 41be dce8 443e 2e8f 9cbe
00000190: 737a f33d ac75 f0bd c2b6 98bd 3377 89bd
000001a0: 2832 b23d ecf2 22be 27f5 14be 3e47 15be
000001b0: 9e10 2a3e 1b6b 7abe 4360 5bbd 677f efbd
000001c0: 28d7 9bbe d000 b73d c5e1 b1bc 6d34 d2bd
000001d0: 2d26 66be 7e1d 22be 983c 8c3d 7910 053e
000001e0: 6871 d83d b5c9 a6bd 6cfd bcbc 3fe4 063e
000001f0: b4d9 32bd a6a3 1f3e 1cc0 fa3d 774a 38be
00000200: 082c 2abe 6b10 01b9 16bd 613e 5c71 c93c
00000210: c585 d33d ac89 923d a54c adbc 125f 2e3e
00000220: 7290 e6bc d869 083c 363b 643e dec1 283e
00000230: 7110 16be e694 2b3e 0787 56be 523a 883e
00000240: efc0 c23d 325f a2be 41a5 e73d 8a55 293e
00000250: 5b76 02be 8c03 78be 47ba 043e 2d7e e73d
00000260: 4bcc b13c dc81 03bd aea2 3b3d 29b2 62be
00000270: 6e1b 88bd 9f27 0f3e 52a5 223e ceef ba3d
00000280: a518 063e 230d 69be d783 debd 14dd 8ebd
00000290: cd64 89be 8e69 adbd 36cf a9bd 23a4 97be
000002a0: 7990 50be beaa 003e dd6d ad3d c34c 6b3e
000002b0: a0cb 35be db13 7f3d 72ab 00be 5c15 1c3e
000002c0: de76 8fbd 9014 50bc e2d1 a0bd cce9 45bd
000002d0: 5663 803d 9428 873e 7681 e33d df26 09be
000002e0: b502 1fbe aa12 5f3e 3747 a23d 91f1 fd3c
000002f0: 7dea c2bd 99ff 253e e2f0 e33d cb7e 01bb
00000300: 91d1 483e c5ae 3c3d 62e6 1fbe 2177 ac3d
00000310: 6e0f 253e 4bc0 94bc 5e74 2e3e fcbd b13d
00000320: 73ff 0c3e 5997 ef3d 35dc 403e 6722 5d3e
00000330: ad47 94be 55be 35be 200c 063e 6dc8 acbe
00000340: 98bd 86be b34b 65be 194e 5cbe 86ca 70bd
00000350: 40ca e1bd 88da 9d3d c3ba 113e 930b 1d3e
00000360: 7047 8f3d ed81 123e 5720 d63d 0dc8 6bbe
00000370: 7ca0 adbe df99 06be 2df1 2b3e aaaa dd3d
00000380: 855d 0fbe 6c75 30be 5491 e63d 59ae 25be
00000390: 9f79 f9bd a03c f9bd 2f37 b5bd a9af a3bc
000003a0: 9798 08be b45f 33bd 7444 c03d c7b3 3b3e
000003b0: 0ba4 89be ea5d 02be f20b 093e 60b1 d0bd
000003c0: 9a0c c63d 0c6d 69bd 5819 213e 64fc 1dbe
000003d0: 690f 0f3e dcb0 15bd f782 3d3e 2f60 96bd
000003e0: f3df 22be 77d5 4e3d 1359 11be 0626 023e
000003f0: 2630 393e b35a 1d3e b5f7 843c 60a3 fa3d

linear2.bias f4 [10]
0.71853197 0.8050583 -0.34203634 -0.515695 0.15306917 -0.5827895 -0.17633523 -0.14644761
0.260025 -0.07672895
00000000: b6f1 373f 4d18 4e3f 631f afbe 9604 04bf
00000010: 2abe 1c3e b131 15bf 3991 34be 5df6 15be
00000020: ff21 853e 1124 9dbd
